JumperAgent.onnx (onnx, 301027 bytes, 5 tensors)

network_body._body_endoder.seq_layers.0.weight f4 [256, 33]
0	0xbdef56fd	-0.116865136
1	0xbc24fa32	-0.010069417
2	0x3df6dd7c	0.120539635
3	0x3e5380d3	0.20654611
4	0x3e34c10c	0.17651767
5	0x3e93e04c	0.28882062
6	0xbd167c95	-0.036739904
7	0xbe9db8b8	-0.30804992
8	0xbdba8a8b	-0.09108456
9	0xbde2c16f	-0.11072051
10	0xbdeef437	-0.11667674
11	0x3de489b5	0.11159078
12	0x3e438543	0.19093804
13	0x3e9d0dde	0.30674642
14	0xbdf992c2	-0.12186195
15	0x3e5371ff	0.20648955
16	0x3eb6fd95	0.35740343
17	0xbec489dc	-0.38386428
18	0x3e1aec9b	0.1512932
19	0x3e1e74cd	0.15474243
20	0x3d860566	0.065439984
21	0xbe965c19	-0.2936714
22	0x3cd1fe9f	0.025634108
23	0x3c16093f	0.009157478
24	0x3d568a4c	0.052377984
25	0xbd98ec69	-0.07466967
26	0x3e99ba4d	0.3002495
27	0x3dceb3e4	0.10092905
28	0x3e0e1a91	0.13877322
29	0xbde304aa	-0.11084874
30	0xbd627235	-0.055284698
31	0xbe722385	-0.23646362
32	0xbea75cff	-0.32688138
33	0x3e06e98b	0.13175027
34	0x3dbd8684	0.092541724
35	0x3d68487f	0.056709763
36	0x3d1ad00c	0.037796065
37	0xbcabe404	-0.02098275
38	0x3d9cfab9	0.07665009
39	0x3e2a8c57	0.16655098
40	0x3e6bfb1d	0.23045011
41	0xbb127cc3	-0.0022352196
42	0x3e76da0b	0.24106614
43	0x3e0386ff	0.12844466
44	0x3d6027e4	0.054725543
45	0x3c90bd1e	0.017668303
46	0xbb16db71	-0.002301898
47	0x3bacd456	0.005274336
48	0x3df54932	0.119768515
49	0x3d6438be	0.055718176
50	0x3df88b93	0.12135997
51	0xbd7e5dc9	-0.06210116
52	0xbd9221b8	-0.071353376
53	0x3e8dae9d	0.27672282
54	0xbed56378	-0.4167745
55	0xbe0e91d9	-0.13922824
56	0x3e627af6	0.22117218
57	0xbdbd4a63	-0.09242704
58	0x3d98533b	0.0743775
59	0x3e061a5a	0.1309599
60	0x3e56d56b	0.2097985
61	0xbdfd67e3	-0.123733304
62	0x3eb8bbc3	0.3608075
63	0xbe1c3465	-0.15254362
64	0xbe319308	-0.17341244
65	0xbde77ede	-0.11303495
66	0x3e4bc8f3	0.19900875
67	0xbe7a2c16	-0.2443088
68	0x3c5dde72	0.013541805
69	0x3d1f6029	0.038910065
70	0x3e47ea2a	0.1952292
71	0xbe1f089f	-0.15530632
72	0x3c5e7d39	0.01357966
73	0xbe874d4f	-0.2642617
74	0xbc00fc05	-0.007872586
75	0xbea987c9	-0.33111408
76	0x3df7a1a4	0.120913774
77	0xbeb45994	-0.35224593
78	0x3e1904bf	0.14943217
79	0x3e144112	0.14477947
80	0xbd096501	-0.03354359
81	0xbd6abfd6	-0.057311855
82	0x3da10fb4	0.07864323
83	0x3e06d08c	0.13165492
84	0xbee1b599	-0.4408386
85	0xbd1f44b2	-0.038883872
86	0xbdd70360	-0.104986906
87	0xbcb98237	-0.0226451
88	0xbdacd53c	-0.08439109
89	0xbe3385c1	-0.17531492
90	0xbd9da6fd	-0.07697866
91	0xbdea410b	-0.11438187
92	0x3e9ac664	0.30229485
93	0xbe9a7c0a	-0.3017276
94	0xbbe19cd2	-0.0068851495
95	0xbe2b9368	-0.1675545
96	0x3e893017	0.26794502
97	0xbe249bee	-0.16075107
98	0xbdd275ce	-0.10276376
99	0xbe69e068	-0.2283951
100	0xbdced8dc	-0.100999564
101	0x3d5d1912	0.053978987
102	0xbd51e4e2	-0.05124367
103	0x3eb7e250	0.3591485
104	0xbd8b7e2f	-0.06811177
105	0xbd96a547	-0.07355743
106	0x3d55ee94	0.05222948
107	0xbe0997c5	-0.13436802
108	0xbe2723c7	-0.16322242
109	0x3d96ee5f	0.073696844
110	0xbdf9c625	-0.12195996
111	0x3d83c208	0.06433493
112	0xbea80345	-0.32814994
113	0x3c623515	0.013806601
114	0xbdbce285	-0.09222893
115	0xbc9f0286	-0.019410383
116	0x3de81cee	0.11333643
117	0x3b1006e1	0.0021976756
118	0xbe485c3d	-0.19566436
119	0x3ea5582f	0.3229384
120	0xbe21f4df	-0.15816067
121	0x3e0bc2c8	0.13648522
122	0x3d39f20e	0.045396857
123	0xbbd88a6a	-0.006608297
124	0x3dff49d1	0.12465251
125	0x3e201515	0.15633042
126	0xbbda338f	-0.0066589783
127	0xbc3e7a88	-0.011625893
128	0x3daa3e50	0.083126664
129	0x3e9c4e26	0.30528373
130	0x3ecdc572	0.401897
131	0xbd299f60	-0.041411757
132	0xbe43a41c	-0.19105572
133	0x3e851566	0.25992888
134	0xbe701cd4	-0.23448497
135	0x3de88120	0.11352754
136	0x3e3f57d8	0.18685853
137	0xbe5166ca	-0.20449367
138	0x3e08c161	0.13355018
139	0xbd3b9be1	-0.045802955
140	0x3dd4d86e	0.10392843
141	0xbd5cb267	-0.053881075
142	0xbe403729	-0.18771042
143	0x3e81390e	0.25238842
144	0x3e87f775	0.26555982
145	0xbe3000b2	-0.17187765
146	0xbd7a8b36	-0.06116792
147	0x3b8d7213	0.004316577
148	0x3d9c9361	0.07645298
149	0x3d5fa98e	0.05460506
150	0x3e2ef6f2	0.1708639
151	0x3d8be2c5	0.06830362
152	0xbdb8628f	-0.090031736
153	0x3d817b86	0.06322388
154	0xbe83e2fe	-0.2575912
155	0x3e78944b	0.2427532
156	0x3ee4e8e0	0.4470892
157	0xbd9532ab	-0.07285055
158	0xbe07ee42	-0.13274482
159	0xbce4d138	-0.027931795
160	0xbd8cede2	-0.0688131
161	0xbe46805e	-0.19384906
162	0xbe887492	-0.26651436
163	0xbe4e7e4b	-0.20165364
164	0xbdc8b824	-0.09800747
165	0xbe8fb9c8	-0.28071427
166	0x3db92d15	0.09041802
167	0x3cb91adb	0.022595813
168	0x3defa6ae	0.117017135
169	0xbdd2f47d	-0.10300539
170	0x3e57996b	0.21054618
171	0x3d07a5f4	0.03311725
172	0x3d55532d	0.052081276
173	0xbd99f4d7	-0.075174026
174	0x3dd3bd43	0.10338833
175	0xbda3db5d	-0.080008246
176	0x3d2ca808	0.042152435
177	0xbddd0b54	-0.10793176
178	0x3eadeae5	0.33968273
179	0xbd9bf41f	-0.07614922
180	0xbaa8f5b3	-0.0012890607
181	0xbeb986ed	-0.36235753
182	0xbc816064	-0.015793033
183	0xbe66e34d	-0.22547646
184	0xbe8cc36d	-0.27492848
185	0x3d9b6eb6	0.07589476
186	0x3e38d2ef	0.18049215
187	0x3dccf84c	0.10008296
188	0x3db67ac9	0.08910138
189	0xbe0a85a2	-0.1352754
190	0xbe1c5062	-0.15265039
191	0xbdb44eaf	-0.0880407
192	0x3e0d66e9	0.13808788
193	0xbdc613d9	-0.096717544
194	0x3e07ade2	0.13249925
195	0x3db336ff	0.08750724
196	0xbe5eee21	-0.21770526
197	0x3dd8c587	0.1058455
198	0x3dc07e97	0.09399145
199	0xbe0888dd	-0.13333459
200	0xbe1870e8	-0.1488682
201	0x3db3b646	0.08775
202	0x3d6f9c49	0.058498655
203	0xbd46c32b	-0.04852597
204	0x3d85b4d8	0.06528634
205	0x3f31209b	0.69190377
206	0x3dc7828a	0.09741695
207	0x3bfcccfe	0.0077148667
208	0xbe222fe2	-0.15838578
209	0x3dfca4a8	0.12336093
210	0x3e28afd7	0.16473328
211	0xbe0f173f	-0.13973711
212	0x3da15d1d	0.07879088
213	0x3d2ddf60	0.042449355
214	0x3f028b5a	0.50993884
215	0x3da66a6a	0.081257656
216	0xbd785b88	-0.060634166
217	0xbd4c61d7	-0.049897995
218	0x3e16c6a4	0.14724213
219	0xbea370e5	-0.3192207
220	0xbdfdbcfc	-0.123895615
221	0x3cf8e6f7	0.03038357
222	0xbe41cedd	-0.18926568
223	0xbdd381c0	-0.10327482
224	0xbd3da358	-0.046298355
225	0xbd0a4de7	-0.0337657
226	0xbd81fc78	-0.06346983
227	0xbc6f75cf	-0.01461549
228	0x3e1b329b	0.15156023
229	0xbce34276	-0.027741652
230	0x3e12adb6	0.14324078
231	0xbdca8270	-0.0988816
232	0xbde99553	-0.114054345
233	0xbd842a9f	-0.06453442
234	0xbd23edf1	-0.04002184
235	0xbddab657	-0.1067931
236	0x3e088ea3	0.13335662
237	0xbe83a656	-0.25712842
238	0x3c8dc897	0.017307563
239	0xbe57ba35	-0.21067126
240	0xbe68f2ca	-0.22748867
241	0xbe0febe6	-0.14054832
242	0x3ea1c718	0.3159721
243	0xbe89eef5	-0.26940122
244	0x3d7d887c	0.06189774
245	0x3e43fda1	0.1913972
246	0x3db49337	0.088171415
247	0x3dd69912	0.104784146
248	0x3eba138a	0.36343032
249	0xbeab1ac1	-0.3341885
250	0x3e8e7f2f	0.27831408
251	0xbdd7469e	-0.10511516
252	0x3dee7bb3	0.116446875
253	0x3e06034b	0.13087194
254	0x3e0a90f4	0.13531858
255	0x3e57c34e	0.21070597

network_body._body_endoder.seq_layers.0.bias f4 [256]
0	0xbc9b706c	-0.018974505
1	0x3cf19ffe	0.029495236
2	0xbcc51432	-0.024057481
3	0x3bbc1bc3	0.005740614
4	0x3cfefc44	0.031126149
5	0x3aeaabd5	0.0017903993
6	0x3c688485	0.014191751
7	0x3da8366a	0.08213504
8	0x3c6c75bc	0.014432367
9	0x3d1685af	0.036748584
10	0xbaab7354	-0.0013080635
11	0x3bfab38d	0.0076507987
12	0x3ccccd7f	0.025000332
13	0xbc99d4cd	-0.01877823
14	0xbb7fe665	-0.0039047238
15	0x3bd95cfa	0.006633398
16	0xbd842cfc	-0.064538926
17	0xbc96aff3	-0.018394446
18	0x3d2a086c	0.041511938
19	0xbb4b1f02	-0.0030993824
20	0xbb5ff0a0	-0.0034170523
21	0x3ceec539	0.029146777
22	0xbca13e1f	-0.019682942
23	0x3d843444	0.064552814
24	0xbd60ff33	-0.054930877
25	0x3d406317	0.0469695
26	0x3d8b9384	0.06815246
27	0xbc12c847	-0.008958883
28	0x3d0eb585	0.03484108
29	0x3d9de4e7	0.07709675
30	0xbc557351	-0.013027982
31	0xbd024a15	-0.03180893
32	0xbc864f49	-0.016395228
33	0xbc8225da	-0.01588719
34	0x3b68721b	0.0035468403
35	0x3db138f8	0.08653444
36	0xbcaae1f8	-0.020859703
37	0xbd576701	-0.052588467
38	0xba17a764	-0.0005785136
39	0xbd1d6af5	-0.03843208
40	0xbcd71231	-0.026253792
41	0xbbfe2f91	-0.007757135
42	0xbd065fd2	-0.032806225
43	0x3d19e551	0.03757221
44	0xbc811bd4	-0.01576034
45	0xbce92cc2	-0.028463725
46	0xbc60496f	-0.013689383
47	0x3cad78be	0.021175738
48	0x3c1d0c59	0.009585463
49	0xbbc8cde6	-0.0061280606
50	0x3d29b7f7	0.04143521
51	0xbc788171	-0.01516758
52	0xbd0e37de	-0.034721248
53	0x3c82489a	0.01590376
54	0xbd5169c4	-0.051126257
55	0xbd570642	-0.052496202
56	0x3cef622e	0.02922162
57	0xbc8bbdf3	-0.017058348
58	0xbd007a04	-0.031366363
59	0x3abcad38	0.0014394885
60	0xbd3e85bd	-0.04651426
61	0x3d7896e0	0.06069076
62	0x3c4c33f3	0.0124635575
63	0x3cf4da6c	0.029889308
64	0x3c7e2668	0.015512086
65	0xbd6946d0	-0.056952298
66	0xbc520c51	-0.012820319
67	0xbcf066d4	-0.029345907
68	0xbc009646	-0.007848328
69	0x3be07331	0.0068496694
70	0xbd05d1fb	-0.032670956
71	0xbd803e11	-0.06261838
72	0x3cae030a	0.021241684
73	0x3d9f1653	0.0776793
74	0xbd161035	-0.03663655
75	0xbc284e08	-0.01027251
76	0xbcb3907b	-0.02191948
77	0x3d6c352e	0.057667904
78	0x3cb10b51	0.021611841
79	0xbb90e7b6	-0.0044221533
80	0x3db484ee	0.08814417
81	0xbcf3c7d3	-0.02975837
82	0xb9e8c21d	-0.00044395114
83	0xbd8ac1b1	-0.06775225
84	0xbb5e342c	-0.0033905609
85	0xbd083831	-0.033256713
86	0x3d54c412	0.0519448
87	0xbd0f4cc4	-0.03498532
88	0xbca57d58	-0.02020137
89	0xbcee8f08	-0.029120937
90	0xbcd72cd2	-0.02626649
91	0xbc202fe0	-0.009777039
92	0x3d50b441	0.050953154
93	0x3cec0ab6	0.028813701
94	0xbc855dba	-0.016280044
95	0x3d323038	0.043503016
96	0x3d4a3bac	0.049373314
97	0xbce6f669	-0.02819367
98	0x3d6c5d82	0.057706363
99	0xbb97072a	-0.0046090083
100	0x3d4f5f53	0.050628018
101	0x3c05b6e6	0.008161282
102	0xbd13ad69	-0.03605405
103	0x3ce17337	0.027520759
104	0xbd666a19	-0.056253526
105	0x3d48b590	0.049001276
106	0xbca4c97c	-0.020115606
107	0xbdb2a0de	-0.08722089
108	0xbd781139	-0.0605633
109	0xbb668302	-0.0035173302
110	0xbca66d0c	-0.02031567
111	0xbca2c1de	-0.019867834
112	0xbd11e4bb	-0.035618525
113	0xbd6d8d6e	-0.057996206
114	0xbcf2fc68	-0.029661372
115	0x3d27ba92	0.04094941
116	0x3d00a984	0.031411663
117	0x3d495c76	0.049160443
118	0x3da11461	0.07865215
119	0xbc9892c8	-0.018624678
120	0x3da38a3d	0.07985351
121	0x3c9f8ac6	0.019475352
122	0x3c643b32	0.013930129
123	0x3c4206da	0.011842454
124	0xba028fcf	-0.00049805356
125	0xbd77f978	-0.060540646
126	0x3ce5e73a	0.028064359
127	0x3c4821a2	0.01221505
128	0x3b4f757b	0.0031655717
129	0xbc8aa4b9	-0.016924249
130	0xbc0df67c	-0.0086647235
131	0xbd58984d	-0.05287962
132	0xbc001540	-0.007817566
133	0xbd184304	-0.037173286
134	0xbd88765e	-0.06663202
135	0x3a59f361	0.00083141593
136	0x3bec375e	0.0072087487
137	0x3cbfac1a	0.023397494
138	0xbd4cc258	-0.04999003
139	0xbd275757	-0.04085478
140	0xbd09c464	-0.03363456
141	0xbc0ef593	-0.008725542
142	0x3d538159	0.051637027
143	0xbcdf65bc	-0.02727019
144	0xbcf1088d	-0.029423023
145	0x3d89d26d	0.06729589
146	0x3d45b0ef	0.04826444
147	0x3c18dee2	0.009330483
148	0x3c4b8008	0.012420662
149	0x3ce83d66	0.02834959
150	0x3ab1d7dc	0.001356836
151	0xbd1eafaa	-0.038741745
152	0xbbf73fc8	-0.007545445
153	0xbd74aa20	-0.059732556
154	0xbd386b55	-0.045024235
155	0xbc86d18f	-0.016457347
156	0xbd2d5f4d	-0.042327214
157	0x3c15e98b	0.009149919
158	0xbd0cb7a9	-0.03435484
159	0x3d7f95dc	0.062398776
160	0x3d49d4eb	0.04927532
161	0xbce59280	-0.028023958
162	0xbc1fc31d	-0.0097511085
163	0xbd01ab95	-0.031657774
164	0xbc8968c2	-0.016773585
165	0x3a92e60c	0.0011207475
166	0xbca3f00a	-0.02001192
167	0x3c0d636c	0.008629661
168	0xbd8ad34a	-0.067785814
169	0xbc7b3fcf	-0.015335037
170	0xbd8bab68	-0.068198025
171	0xbd4e3f61	-0.05035341
172	0xbc3d9d1d	-0.011573103
173	0xbd02a86b	-0.031898897
174	0xbd60ce7f	-0.05488443
175	0xbd3c1f7d	-0.045928467
176	0x3d8319b5	0.064013876
177	0x3c836286	0.01603819
178	0x3a7b1a94	0.00095788506
179	0xbd793ef4	-0.060851052
180	0x3d406ced	0.04697888
181	0xbc5c71f8	-0.013454907
182	0x3bdb116f	0.006685428
183	0xbc118fab	-0.008884351
184	0xbcfd552d	-0.030924404
185	0x3b2a77c5	0.002601133
186	0xbb3106ed	-0.0027012185
187	0x3d00e255	0.031465847
188	0xbcfefd01	-0.031126501
189	0xbcdeec17	-0.027212186
190	0xbd10e8c0	-0.035378218
191	0xbce92afc	-0.02846288
192	0xbc06bc6c	-0.008223634
193	0xbcdbfc07	-0.026853574
194	0xba9e34db	-0.0012070196
195	0xbd3b0004	-0.04565431
196	0x3ca95a3a	0.020672906
197	0xbab1d7df	-0.0013568363
198	0x3d6da676	0.058020078
199	0x3c728d60	0.014804214
200	0x3d2165f8	0.039403886
201	0x3dae6e93	0.08517184
202	0xbbcf9ba0	-0.0063356906
203	0xbc7a8513	-0.015290516
204	0xbcd258a9	-0.025677042
205	0xbccb74a2	-0.024835888
206	0xbc42daa0	-0.011892945
207	0x3d350fc1	0.044204477
208	0xbd1dac9d	-0.038494695
209	0xbcc92b20	-0.024556696
210	0xbd900f7a	-0.07034202
211	0xbcba7546	-0.022760998
212	0x3dc98170	0.09839141
213	0x3d5960ca	0.05307082
214	0x3c62eb83	0.013850096
215	0x3d206c3f	0.03916573
216	0x3aeeb8eb	0.0018213069
217	0x3d9f3a58	0.077748
218	0x3d892559	0.066965766
219	0xbcb7b61e	-0.022425707
220	0xbbd27036	-0.006422068
221	0xbce94c7b	-0.028478852
222	0x3ca501d5	0.020142475
223	0x3c191256	0.009342751
224	0x3cc39b4e	0.023877766
225	0xbc85a0e2	-0.016312066
226	0xbbfcb78d	-0.0077123106
227	0xbbb55efd	-0.005535005
228	0xbb2661e9	-0.002538795
229	0xbd189d3a	-0.037259318
230	0xbd7ad482	-0.06123782
231	0x3ccdda7d	0.025128597
232	0x3c368f57	0.011142573
233	0xbd75d75e	-0.060019843
234	0xbccb11da	-0.024788786
235	0x3d26513e	0.040604822
236	0x3d44cebd	0.048048723
237	0xb99a2634	-0.00029401632
238	0xbcea570c	-0.02860596
239	0x3a2e1ab5	0.0006641553
240	0xbcea1209	-0.028573053
241	0xbd2aa7b2	-0.041663833
242	0x3d85ef25	0.06539754
243	0x3d117b47	0.035517957
244	0x3d89a811	0.06721509
245	0xbbcd1377	-0.006258424
246	0xbcf69f4a	-0.030105252
247	0xba522663	-0.00080165843
248	0x3d19a566	0.037511252
249	0x3cbf0109	0.023315923
250	0x3cfc2ed6	0.030784052
251	0xbd9dcfa8	-0.07705623
252	0xbd5a57f7	-0.053306546
253	0x3d791349	0.060809407
254	0xbcf87719	-0.030330228
255	0xbc3e3d1f	-0.011611252

network_body._body_endoder.seq_layers.2.weight f4 [256, 256]
0	0xbd479dbd	-0.048734415
1	0xbdc31b9a	-0.09526749
2	0x3d915b8d	0.0709754
3	0xbd2f9034	-0.042862132
4	0x3ba58903	0.0050517335
5	0xbd83986d	-0.06425557
6	0x3de60a43	0.11232426
7	0xbdf906df	-0.12159514
8	0x3c886b8f	0.01665285
9	0x3e0524cc	0.13002318
10	0x3d873dcf	0.06603586
11	0xbcb24b6d	-0.021764481
12	0x3c8952ca	0.01676311
13	0x3cf32f1e	0.029685553
14	0x3de25ed8	0.11053246
15	0xbc1405ed	-0.009034616
16	0x3e0cbb12	0.13743237
17	0xbc678d63	-0.01413283
18	0xbd6f38a9	-0.058403645
19	0xbdf9d5e6	-0.12199001
20	0x3c3a6559	0.011376702
21	0xbb40d6e6	-0.0029424964
22	0x3b90ee38	0.004422929
23	0xbbd58943	-0.006516607
24	0x3a8891a5	0.0010419382
25	0x3d843625	0.0645564
26	0xbd0b9afa	-0.034083344
27	0xbe05ca94	-0.13065559
28	0xbcb6bda8	-0.022307232
29	0xbe1002e2	-0.140636
30	0xbe47bfea	-0.19506803
31	0x3caf33ba	0.02138697
32	0xbe0665d3	-0.1312478
33	0xbd02bdad	-0.03191917
34	0xbd9dac6a	-0.07698901
35	0xbd23e6ca	-0.04001502
36	0xbc952d33	-0.01821003
37	0x39da34f6	0.0004161966
38	0xbcda40fc	-0.026642315
39	0x3d9be7c7	0.076125674
40	0xbdbdba20	-0.09264016
41	0x3ac017a2	0.0014655481
42	0x3da514c3	0.080606006
43	0xbe3adfe3	-0.18249469
44	0x3dc189d3	0.09450116
45	0xbd4d7c6e	-0.050167494
46	0xbc133573	-0.008984911
47	0xbcfb0e1b	-0.030646374
48	0x3d429d3d	0.047513235
49	0x3d834fb6	0.06411688
50	0x3dbd4f44	0.09243634
51	0xbb1f36c0	-0.0024294108
52	0x3d64ccb3	0.05585928
53	0xbd151521	-0.036397103
54	0xbd16051e	-0.036625974
55	0x3cb727fe	0.022357937
56	0x3d6a0a42	0.05713869
57	0x3c931d8d	0.017958427
58	0xbe104fd3	-0.1409295
59	0x3bc5ba78	0.0060341917
60	0x3c9e71ab	0.01934131
61	0xbe08daef	-0.13364767
62	0x3cd561a4	0.026047535
63	0xbd4f0255	-0.050539333
64	0xbe0bf919	-0.13669242
65	0xbd96ce34	-0.07363549
66	0x3cd15c39	0.02555667
67	0x3dd5a49c	0.10431787
68	0x3d53d14f	0.051713284
69	0xbe077551	-0.13228346
70	0xbd307c99	-0.043087576
71	0xbc65517c	-0.013996478
72	0x3dbaccc5	0.09121088
73	0x3add34cf	0.00168767
74	0xbb13bae7	-0.0022541822
75	0xbc772834	-0.015085269
76	0x3c3605c9	0.011109778
77	0x3d8f7d03	0.07006266
78	0xbd986078	-0.07440275
79	0xbd569b95	-0.05239447
80	0xbbb114d4	-0.0054040942
81	0x3d6e22f6	0.05813881
82	0xbdb01ee1	-0.0859964
83	0x3cd65ca9	0.02616723
84	0xbd3f9a0b	-0.046777766
85	0xbc3a6c3c	-0.011378344
86	0x3d713f85	0.058898468
87	0x3c30578c	0.01076306
88	0xbcab085f	-0.020878015
89	0xbd5ce5a7	-0.05392995
90	0x3c8acc08	0.016942993
91	0x3ce13b76	0.027494173
92	0x3b8446f8	0.0040367804
93	0xbcf9d40b	-0.030496618
94	0x3d832a73	0.06404581
95	0xbcae6aa0	-0.021291077
96	0x3de4390a	0.11143692
97	0xbdac0360	-0.08399081
98	0xbd880de9	-0.06643278
99	0xbe1e5d5a	-0.15465298
100	0xbd4a363a	-0.04936812
101	0xbd44d859	-0.048057888
102	0x3d77dd53	0.060513806
103	0x3dc46ccc	0.09591064
104	0x399c4cbd	0.00029811813
105	0x3d185913	0.037194323
106	0xbdb827dd	-0.08991978
107	0x3d32ec11	0.04368216
108	0xbca205c5	-0.019778142
109	0xbe1277b3	-0.14303474
110	0xbd2a7359	-0.04161391
111	0xbdb01812	-0.08598341
112	0xbe0168cc	-0.12637633
113	0x3c9bbb8e	0.019010331
114	0xbce28bbe	-0.027654525
115	0xbdd76b1e	-0.10518478
116	0xbd8ce8ad	-0.06880317
117	0xbd32fc5c	-0.0436977
118	0xbd9c844f	-0.07642423
119	0x3c9b0808	0.018924728
120	0xbd18f684	-0.03734447
121	0x3df3135b	0.11868926
122	0xbc9f4e09	-0.01944639
123	0x3cae5a42	0.021283273
124	0x3d1e51ff	0.038652416
125	0x3d6b79db	0.057489257
126	0xbd46242c	-0.04837434
127	0xbc103e95	-0.008803983
128	0x3ddf3e27	0.109005265
129	0xbe2adeaf	-0.1668651
130	0xbc6345d1	-0.013871626
131	0x3d34e63f	0.044164892
132	0xbd16d641	-0.036825422
133	0xbd295df3	-0.041349363
134	0xbce5da37	-0.028058155
135	0xbd2adc0a	-0.04171375
136	0x3d5332ef	0.051562246
137	0x3d1913c6	0.037372373
138	0x3cdde7e1	0.027088108
139	0xbceb46e7	-0.028720332
140	0x3dacc0e4	0.084352285
141	0xbde40da0	-0.11135411
142	0xbe017585	-0.12642486
143	0x3c32c47a	0.0109111015
144	0xbd883b0a	-0.06651886
145	0xbdcbc08e	-0.09948836
146	0xbdda79dd	-0.10667775
147	0xbd22ff36	-0.03979417
148	0x3bf45593	0.0074564903
149	0xbccb8e1c	-0.024848036
150	0x3d9b00f3	0.075685404
151	0xbd904095	-0.07043568
152	0x3d0662b2	0.032808967
153	0x3cd9b405	0.026575098
154	0xbda24e51	-0.07925094
155	0xbd0eea83	-0.034891617
156	0xbc161a59	-0.009161555
157	0xbe378a0b	-0.17923753
158	0x3cb8aa7b	0.022542229
159	0xbe034cb6	-0.12822232
160	0xbd40c447	-0.047062185
161	0xbe29e45c	-0.16591018
162	0x3dac409a	0.08410759
163	0x3bd2919f	0.006426051
164	0xbd92e9ef	-0.071735255
165	0xbd870174	-0.06592074
166	0x3d1793a8	0.03700605
167	0x3dfe5108	0.12417799
168	0xbdc1ead2	-0.094686165
169	0x3d22cc0d	0.03974538
170	0xbd6222ca	-0.05520896
171	0xbde1cdaa	-0.110255554
172	0xbd91b662	-0.07114865
173	0xbd673b9c	-0.056453332
174	0x3da7d099	0.08194084
175	0x3cbb5c4c	0.022871159
176	0xbc485b13	-0.012228745
177	0xbdd7a188	-0.105288565
178	0xbdabaa51	-0.08382095
179	0x3d97a120	0.07403779
180	0x3baf0c36	0.005342032
181	0x3bae76c6	0.0053242175
182	0xbdec0dcd	-0.1152607
183	0xbe1553f4	-0.14582807
184	0xbd91ffa2	-0.07128836
185	0xbce6fb52	-0.02819601
186	0xbde5bf4f	-0.1121813
187	0xbd9a0de0	-0.07522178
188	0xbc4acb64	-0.012377594
189	0xbded928d	-0.11600218
190	0x3d220081	0.03955126
191	0xbde062a5	-0.10956315
192	0xbd36ddf3	-0.04464526
193	0xbe04a6fb	-0.12954323
194	0xbd6cc9ea	-0.057809748
195	0x3ddff930	0.109362006
196	0x3d4d3330	0.050097644
197	0xbc70ea26	-0.014704263
198	0x3d94ab73	0.07259264
199	0x3d502b88	0.050822765
200	0xbdb8dde8	-0.090267
201	0xbcfd6fb4	-0.030937053
202	0xbd868767	-0.06568795
203	0x3d0a2dfb	0.033735257
204	0xbcc0c30e	-0.02353051
205	0x3d0e0b35	0.034678657
206	0xbcf5fa96	-0.030026715
207	0xbca892f0	-0.020577878
208	0xbd303a9e	-0.04302465
209	0xb90c744f	-0.00013394769
210	0xbd912544	-0.07087186
211	0x3d9c85ad	0.07642684
212	0x3c84b745	0.016200671
213	0xbd269382	-0.04066802
214	0xbdfc2e3a	-0.123135045
215	0xbd062f06	-0.03275969
216	0xbde15b4c	-0.110037416
217	0x3e85f942	0.2616673
218	0x3cdaac71	0.026693555
219	0x3d688a97	0.056772795
220	0x3ce5cd91	0.028052123
221	0x3d3a3f45	0.045470495
222	0xbcb5b7a3	-0.022182291
223	0xbd8faec2	-0.07015754
224	0xbd754ec5	-0.059889574
225	0xbd14cee4	-0.03633012
226	0x3e28a65c	0.16469711
227	0xbb93b11e	-0.004507198
228	0x3ddca92e	0.10774456
229	0x3c704ae7	0.014666296
230	0xbcd38fe1	-0.025825443
231	0x3e0bc2b5	0.13648494
232	0x3dae9b3f	0.085257046
233	0x3d3d23e8	0.04617682
234	0xbdd6ec48	-0.10494286
235	0xbdbd39cb	-0.09239539
236	0xbd0ab2ee	-0.033862047
237	0xbd5f4646	-0.054510377
238	0x3d90d76e	0.0707234
239	0xbe013a9d	-0.12620015
240	0xb9d344a2	-0.00040296192
241	0x3c2f4b14	0.010699052
242	0x3d77b111	0.060471598
243	0x3e336b79	0.17521466
244	0x375c50f5	1.3131871e-05
245	0xbe15f3ec	-0.1464383
246	0xbd186ebd	-0.037214983
247	0x3c9c0d21	0.01904923
248	0x3caf2dbb	0.02138411
249	0x3d901af6	0.070363924
250	0xbdd28d33	-0.10280838
251	0x3d38e744	0.045142427
252	0xbb772850	-0.0037713237
253	0x3d979176	0.07400791
254	0xbdd50323	-0.10400989
255	0xbd1f4c6a	-0.038891234

network_body._body_endoder.seq_layers.2.bias f4 [256]
0	0x3c71cb9f	0.01475802
1	0x3b97f3d6	0.004637222
2	0x3c632a19	0.013865017
3	0xbb992630	-0.0046737418
4	0xbc2de4b2	-0.010613607
5	0x3c29a381	0.010353924
6	0xbc5b1a15	-0.013372918
7	0x39aef3e3	0.00033369576
8	0x3bf5d1fa	0.007501838
9	0xbd15bbcb	-0.036556046
10	0xbd049057	-0.032364216
11	0xbcbcf309	-0.023065107
12	0xbce7fd8e	-0.028319146
13	0xbc8fe593	-0.017565524
14	0x3d051131	0.032487098
15	0xba951ef7	-0.0011377026
16	0x3974879c	0.00023320172
17	0xbc99f008	-0.018791214
18	0xbb45200c	-0.0030078916
19	0x3b867374	0.0041031186
20	0xbc457add	-0.012053219
21	0xbc5b1ee8	-0.013374068
22	0xbc12cea0	-0.008960396
23	0xbc9a1b6e	-0.018811908
24	0xbca6b910	-0.020351917
25	0xbc62ce07	-0.013843066
26	0x3b7441d5	0.0037270684
27	0x3a9ff0b8	0.0012202477
28	0xbc052c91	-0.008128301
29	0x3af59a33	0.0018737972
30	0xbc67d124	-0.014148984
31	0xbc9479c7	-0.018124474
32	0x3bf9ffc8	0.0076293685
33	0xbbbff41a	-0.0058579566
34	0x3c8e98d3	0.017406857
35	0xbbdd832f	-0.006760023
36	0x3c5cfc2b	0.013487856
37	0xbc285eca	-0.010276506
38	0x3b918ad0	0.0044415966
39	0x3c537291	0.012905733
40	0xbc294c34	-0.01033311
41	0xbce35d12	-0.02775434
42	0xbc8f6685	-0.01750494
43	0xbc5058cd	-0.012716484
44	0xbc4e26c1	-0.012582482
45	0xbd14de97	-0.03634509
46	0x3c8efbac	0.01745399
47	0x3ccafe88	0.024779573
48	0xbbc95c9a	-0.006145072
49	0x3a119778	0.00055538816
50	0xbc2ec7e4	-0.010667775
51	0x3ce4379e	0.027858552
52	0x3be05fae	0.0068473434
53	0xbc7aeb6f	-0.015314921
54	0xbba3a524	-0.0049940515
55	0xbc8f2037	-0.017471416
56	0x3ce8a901	0.0284009
57	0x3c18126b	0.009281735
58	0xbb656ddd	-0.003500811
59	0x3c303251	0.010754184
60	0xbbc8c0cd	-0.0061264993
61	0x39fa6010	0.00047755288
62	0x3a50296f	0.00079407444
63	0xb82179e8	-3.8498925e-05
64	0x3c73da55	0.014883597
65	0xbc1aa5d4	-0.009438951
66	0x3ccf0b64	0.025273986
67	0xbcf1ace2	-0.029501382
68	0x3bfdd071	0.0077457954
69	0x3cc13c2b	0.02358826
70	0xbd0f3c19	-0.034969423
71	0x3ca29a99	0.019849109
72	0xbbd7510c	-0.006570941
73	0x3c96e842	0.018421296
74	0xbba19d45	-0.004932078
75	0x3bb712f1	0.005586975
76	0x3acb04ba	0.001548908
77	0x3c76cc93	0.015063423
78	0xbcf1b0ca	-0.029503245
79	0xbd254ca3	-0.04035629
80	0x3cd665c5	0.026171574
81	0xbbb3ab8b	-0.005483096
82	0xbcbb5d57	-0.022871656
83	0xbc4f719e	-0.012661366
84	0xbc3bc35b	-0.011460151
85	0x3cb74c5d	0.02237528
86	0xbc63b343	-0.01389772
87	0x3cfd090d	0.030888105
88	0x3c89612a	0.016769964
89	0x3b632fe6	0.0034666
90	0x3c9eb2ee	0.01937243
91	0xbc011424	-0.007878337
92	0x3c336aca	0.010950753
93	0xbc3f7213	-0.011684912
94	0x3ca24eb4	0.01981292
95	0xbbcc9631	-0.00624349
96	0x3ba067d7	0.004895191
97	0x3c6bad2c	0.014384549
98	0x3c3eb618	0.011640094
99	0xbbd01af1	-0.006350868
100	0x3d09778d	0.033561278
101	0x3cc2af2c	0.02376517
102	0xbbd0329d	-0.00635369
103	0xbb9dd839	-0.0048170355
104	0xbc8c2f13	-0.01711229
105	0xbc3b2e26	-0.011424577
106	0x3a3fce27	0.0007316791
107	0xbb032901	-0.0020013454
108	0xbc850cef	-0.016241519
109	0x3b9b2989	0.004735176
110	0x3ba074b2	0.0048967237
111	0x3c12aba4	0.008952055
112	0xbb5360d2	-0.0032253754
113	0xbb8dd0e9	-0.0043278825
114	0xbac44a79	-0.0014975808
115	0xbab735f5	-0.0013977872
116	0x3be1f5ce	0.0068957573
117	0x3c8cf844	0.017208226
118	0x3c83a82d	0.016071403
119	0xbbc8cd5a	-0.0061279954
120	0xbb5b9599	-0.0033505915
121	0x3b6d269a	0.0036186338
122	0x3bbe3edd	0.0058058337
123	0xbb952109	-0.0045510572
124	0xbc40e915	-0.011774321
125	0xb975daf0	-0.00023446581
126	0xbc1f5f07	-0.009727246
127	0x3d041c92	0.03225381
128	0xbbd7a4a8	-0.006580908
129	0xbce8eb45	-0.028432498
130	0x3c4b70f6	0.012417069
131	0xbc3e4fb6	-0.011615684
132	0x3c21559d	0.009847072
133	0xbb8aecb6	-0.004239644
134	0xbb8402bc	-0.0040286463
135	0x3cd1764a	0.0255691
136	0xbc9be235	-0.019028762
137	0x3cb8c6d0	0.022555739
138	0xbc9deb5e	-0.01927727
139	0x3b474354	0.003040512
140	0xbb5319f4	-0.0032211514
141	0xbba46aa4	-0.0050175954
142	0xbc9d35e5	-0.019190738
143	0xbb4483ea	-0.0029985853
144	0x3c82ff15	0.015990773
145	0xbc9b4866	-0.01895542
146	0xbc8ae64a	-0.016955514
147	0x3ced178d	0.028941894
148	0xbc7ff2b8	-0.0156218335
149	0x3ca1c15c	0.019745521
150	0x3b2f3690	0.0026735403
151	0xbd0a8275	-0.03381582
152	0xbc956db5	-0.018240789
153	0x3ad44ab2	0.0016196577
154	0x3ce56806	0.028003704
155	0x3c638b69	0.013888218
156	0x3c70158b	0.014653574
157	0xbc21448c	-0.009843003
158	0x3cc92a03	0.024556166
159	0xbc1a78aa	-0.009428183
160	0xbc24d1e5	-0.010059808
161	0x3c9f0afb	0.019414416
162	0xbc285474	-0.010274041
163	0x3c9bb3ec	0.019006692
164	0x3ccb5e70	0.024825305
165	0xbcb4e383	-0.022081142
166	0xba3707fc	-0.0006982086
167	0xbc207f6f	-0.009796008
168	0xbb83850a	-0.004013662
169	0xbc534fa5	-0.012897407
170	0x3ce70150	0.028198868
171	0x3d059629	0.032613907
172	0xbc32e64d	-0.010919166
173	0xbc8692a0	-0.016427338
174	0xbbcbb844	-0.0062170345
175	0x3cb78d30	0.02240619
176	0xbb4b3b1e	-0.0031010578
177	0xbb5a09a4	-0.0033269906
178	0xbb2b329d	-0.0026122697
179	0x3c387753	0.011258918
180	0x3aa7763b	0.0012776324
181	0xbb0340e5	-0.0020027694
182	0x3c4346e4	0.011918757
183	0x3c0b4a5e	0.008501617
184	0xbc1c5d02	-0.009543659
185	0x3b703446	0.003665225
186	0xbc78e912	-0.015192287
187	0x3b3f499e	0.0029188166
188	0x3c54e22b	0.012993376
189	0xbbdb5c65	-0.006694364
190	0xbc9c9dac	-0.019118153
191	0xbaa72d21	-0.0012754538
192	0xbc40fd03	-0.011779073
193	0xbc736386	-0.014855271
194	0x3c98058e	0.018557336
195	0xbc197dd3	-0.009368378
196	0x3c06b288	0.008221276
197	0xbc8b9d99	-0.017042922
198	0xbc7f2e87	-0.015575058
199	0x3bc2d6d7	0.005946021
200	0x3b250ca9	0.0025184548
201	0xbbf08ba4	-0.007340865
202	0xbc3e628d	-0.011620176
203	0x3c0dad60	0.008647293
204	0x3b58fbde	0.003310911
205	0x3c10baea	0.008833626
206	0xbc70ca04	-0.014696602
207	0xbd157d71	-0.036496583
208	0xbce64945	-0.02811111
209	0xbb939b16	-0.0045045717
210	0xbc810beb	-0.015752753
211	0x3a89ef1b	0.001052353
212	0xba390373	-0.0007057704
213	0xbbc3ef6d	-0.0059794695
214	0x3c9c2f18	0.019065425
215	0x3c16abb6	0.0091962125
216	0xbb21827b	-0.0024644423
217	0xbcae677a	-0.021289576
218	0x3cc901b3	0.024536943
219	0xbba1018d	-0.004913515
220	0xbb5d4c45	-0.0033767384
221	0xbc4bc5c2	-0.012437286
222	0xbc7b18e0	-0.015325755
223	0xbc80e358	-0.015733406
224	0xbc87b5e5	-0.016566226
225	0x3c34cb2d	0.011034769
226	0xbc72014f	-0.01477082
227	0x3c750535	0.014954855
228	0xbc034c4d	-0.008013797
229	0x3c0e24fb	0.008675809
230	0xbc331533	-0.010930347
231	0xbbe007d1	-0.0068368693
232	0xbb5e4ec3	-0.0033921457
233	0x3cfb590b	0.030682107
234	0xbb0b4000	-0.0021247864
235	0xbc6876a8	-0.014188446
236	0x3d21eb98	0.03953132
237	0xbcf8862f	-0.030337421
238	0xbc8f9ca0	-0.01753074
239	0xbb9773c0	-0.004621953
240	0x3c26a9e7	0.010172344
241	0xbb50c3cf	-0.0031854992
242	0x3bb202b6	0.005432452
243	0x3d0542e8	0.03253451
244	0xbbfa9388	-0.0076469816
245	0xbcc1e5bb	-0.023669114
246	0xbcaf2d69	-0.021383958
247	0xbc86ba0c	-0.016446136
248	0x3cc44de5	0.023962924
249	0x3c2ffe09	0.010741719
250	0xbab0dc67	-0.0013493419
251	0x3c0b68ac	0.008508842
252	0x3c4138a3	0.011793288
253	0xbc0986f6	-0.008393994
254	0x3cadd936	0.021221738
255	0x3bd6306d	0.0065365345

action_model._continuous_distribution.mu.weight f4 [1, 256]
0	0xbc454b99	-0.01204195
1	0x3c3c3ae0	0.011488646
2	0x3d051867	0.032493975
3	0x3d07bde6	0.033140086
4	0x3c9ed143	0.019386893
5	0xbc7aa8b1	-0.015299008
6	0x3c57b601	0.013165952
7	0xbb0b2e80	-0.0021237433
8	0xbc577e82	-0.01315272
9	0x3ca3017c	0.019898169
10	0x3d1ff619	0.039053056
11	0x3c04b2a3	0.008099231
12	0x3c43409d	0.0119172605
13	0x3d23519d	0.039872754
14	0x3d6a885f	0.05725896
15	0xbad57824	-0.0016286415
16	0xbbbf7bc4	-0.0058436114
17	0x3cc86cab	0.02446588
18	0x3cba81b2	0.022766922
19	0xbc69fe0a	-0.014281759
20	0x3cd7ef8f	0.026359348
21	0xbbdec96e	-0.0067989146
22	0x3cee12c7	0.029061688
23	0x3c65b599	0.014020347
24	0x3c812027	0.015762402
25	0x3d00c712	0.03143985
26	0x3cf5de6b	0.030013284
27	0xbc51f54d	-0.012814832
28	0x3b7d410d	0.003864351
29	0x3cf2d560	0.02964276
30	0x3c9e2449	0.019304411
31	0xbb865e52	-0.0041005993
32	0xbcc1cdb4	-0.023657657
33	0x3bfec1ab	0.007774552
34	0x3d39620e	0.045259528
35	0x3cafa610	0.02144149
36	0x3ce7f8e5	0.028316924
37	0x3d03038d	0.03198581
38	0x3cab9204	0.02094365
39	0x3d93e562	0.07221486
40	0x3baa610f	0.0051995586
41	0x3c11b75d	0.008893815
42	0x3c9f491f	0.019444047
43	0x3cedaa54	0.029011883
44	0x3ca54037	0.020172222
45	0x3ca0fc06	0.019651424
46	0x3d14f23a	0.036363818
47	0xbc5423d8	-0.012947999
48	0x3cc9927d	0.024605984
49	0xbca8a247	-0.020585192
50	0xbc167614	-0.009183425
51	0x3d65deb3	0.056120586
52	0x3ce9efa8	0.02855666
53	0x3cd48ed6	0.025947016
54	0x3c708786	0.014680749
55	0x3b101120	0.0021982864
56	0xbc2766dc	-0.010217395
57	0x3d652f35	0.055953223
58	0x3c323058	0.010875784
59	0xbcb023e9	-0.021501498
60	0x3cfd4afb	0.030919543
61	0x3c1f70a2	0.009731444
62	0x3cd26cea	0.0256867
63	0xbc5d6d5e	-0.013514845
64	0x3c6fcda3	0.01463643
65	0xbc4e375d	-0.012586442
66	0xbcb722d0	-0.022355467
67	0x3cd85b08	0.026410595
68	0x3cb33cc8	0.021879569
69	0x3d4706e6	0.048590563
70	0xbb10036c	-0.0021974696
71	0xbc33f53c	-0.010983761
72	0xbc27a16e	-0.010231359
73	0x3d823110	0.06357014
74	0x3cbc6d16	0.023001235
75	0xbc90788b	-0.017635604
76	0xbc83769b	-0.016047766
77	0x3c79b4f8	0.0152409
78	0x3cbb67a3	0.022876566
79	0xbbd1863e	-0.0063941767
80	0x3d7aa1cf	0.06118947
81	0x3d0ddd75	0.034635026
82	0x3c76e662	0.015069576
83	0x3c818fb9	0.015815603
84	0x3cef695d	0.029225046
85	0x3d7da9e2	0.06192959
86	0xbbb968e0	-0.005658254
87	0xbd0aa0bd	-0.0338447
88	0xbbff904b	-0.0077991835
89	0x3cca0cb7	0.024664266
90	0x390b8dad	0.00013308851
91	0x3a49e619	0.0007701829
92	0x3d1647c6	0.036689542
93	0x3c51acd4	0.012797553
94	0x3cfbdacf	0.030743985
95	0x3d0e2931	0.034707252
96	0x3cf1f28b	0.029534599
97	0x3d3e75ac	0.04649894
98	0xbc2e1d23	-0.010627064
99	0x3baee47f	0.0053372975
100	0xbcf78e9c	-0.030219369
101	0x3d8d7f5f	0.0690906
102	0xbbca63eb	-0.006176462
103	0x3a282f36	0.00064157264
104	0x3cc66e61	0.024222555
105	0x3cd8d6c8	0.026469603
106	0x3ce22d35	0.027609447
107	0xbb54156d	-0.0032361404
108	0x3c9007cf	0.017581848
109	0xbbd7db5a	-0.006587428
110	0xbcb5a8f3	-0.022175288
111	0x3d6b2cb1	0.057415668
112	0x3a8cee83	0.0010752234
113	0x3d023169	0.031785402
114	0x3cf40dd0	0.029791743
115	0xbc09a509	-0.008401164
116	0x3c892b27	0.01674421
117	0xbca92527	-0.020647598
118	0x3bbbc501	0.005730272
119	0x3ccac5ec	0.02475258
120	0x3cb1cc13	0.021703755
121	0x3c623c1f	0.013808279
122	0x3c1a6b4c	0.009424996
123	0x3ce6d5ab	0.028178057
124	0x3c8aa63c	0.01692497
125	0x3c91d34b	0.017800948
126	0xbb49cffb	-0.0030794132
127	0x3d4d1d9f	0.050077077
128	0x3d0b7c33	0.034053992
129	0x3cd80ddb	0.026373794
130	0x3ce625aa	0.028094131
131	0x3c3c393f	0.011488258
132	0x3bcf2592	0.0063216174
133	0x3c9e8525	0.019350598
134	0x3c06d155	0.00822862
135	0x3d98ff29	0.07470543
136	0x3d084c33	0.033275794
137	0xbca9fcd9	-0.02075045
138	0x3c844953	0.016148245
139	0xbc00e7db	-0.007867779
140	0x3ceb6593	0.028734958
141	0x3c583139	0.013195329
142	0xbbebc09d	-0.007194592
143	0x3cb400da	0.021973062
144	0x3d0fd614	0.03511627
145	0x3c383da9	0.01124517
146	0xba11edad	-0.00055667275
147	0x3d79848f	0.060917433
148	0x3d07bb67	0.033137705
149	0xbcd2431b	-0.025666764
150	0xbcdf8aef	-0.027287928
151	0x3ce1bf92	0.027557168
152	0x3d1a2c43	0.037639868
153	0xbc243941	-0.010023416
154	0xbcafed14	-0.021475352
155	0x3d4ef800	0.05052948
156	0x3d622572	0.055211492
157	0xbbd25ba1	-0.0064196144
158	0x3d4aaa52	0.049478836
159	0x3c722ec3	0.014781657
160	0x3cb6c2dc	0.022309713
161	0xbca92231	-0.020646187
162	0x3b4a02a5	0.003082433
163	0x3d8f3735	0.06992952
164	0x3d2b8ac0	0.04188037
165	0x3c3a88be	0.011385141
166	0x3c1d4da1	0.009601028
167	0x3d16138a	0.036639728
168	0x3ca9162b	0.020640453
169	0x3b854144	0.004066618
170	0xbb700210	-0.0036622323
171	0xbd674828	-0.056465298
172	0x3ca22925	0.01979501
173	0x3a1c86c2	0.0005971008
174	0x3a321ca2	0.0006794428
175	0x3d6a41b9	0.057191584
176	0x3cdeb79f	0.027187167
177	0xbca6658b	-0.020312091
178	0x3ced729a	0.02898531
179	0xbbff8f1e	-0.0077990433
180	0x3d258ebc	0.040419325
181	0xbad571b5	-0.0016284498
182	0x3ce65435	0.028116325
183	0x3c877249	0.016533988
184	0x3cbaf7df	0.022823272
185	0x3cc757c6	0.024333846
186	0xbb4fa095	-0.0031681408
187	0x3d244717	0.04010686
188	0x3d23ce94	0.03999193
189	0x3c447d8c	0.011992823
190	0x3cc6dd84	0.024275549
191	0x3d64cd1d	0.055859674
192	0x3c72bcec	0.01481555
193	0xbb79d15d	-0.0038119175
194	0x3cebed2c	0.028799616
195	0xbc064d76	-0.008197179
196	0x3d599398	0.053119272
197	0x3d00e343	0.031466734
198	0x3d31eb4f	0.0434373
199	0xbcbed9f1	-0.023297282
200	0xbcb3311a	-0.021874
201	0x3b5c6f3b	0.0033635634
202	0x3ccd07c2	0.025028113
203	0x3cfd34f9	0.030909048
204	0xbc294e50	-0.010333613
205	0x3cc654cd	0.024210358
206	0x3c4ef729	0.01263217
207	0x3c14688b	0.009058128
208	0x3c3d1408	0.01154042
209	0xbbbbfe82	-0.005737127
210	0x3b55b33c	0.0032608053
211	0xbbfcea4c	-0.00771836
212	0x3c632ba0	0.0138653815
213	0x3ce8e9c8	0.028431788
214	0x3d864840	0.06556749
215	0x3ccfd6f6	0.025371056
216	0x3d19c58d	0.037541915
217	0x3b87240d	0.0041241706
218	0x3d4d884c	0.05017881
219	0xbc1cd417	-0.0095720505
220	0x3d3c44c4	0.045964018
221	0x3cdbce96	0.026831906
222	0x3c0325ee	0.008004649
223	0x3c25aa4b	0.010111402
224	0xbc487dbe	-0.0122370105
225	0xbc32867d	-0.010896322
226	0x3cfb6390	0.030687124
227	0x3c970529	0.018435078
228	0x3cc4dd02	0.024031166
229	0xbc171d2f	-0.0092232665
230	0x3b71eb78	0.0036914032
231	0x3d0ca53d	0.03433727
232	0x3d19cbb2	0.037547775
233	0x3da969ce	0.08272134
234	0x3d1371f3	0.035997342
235	0x3cfb4260	0.030671299
236	0x3d950dcf	0.072780244
237	0x3c8c78ef	0.01714751
238	0x3c8f9be9	0.017530398
239	0xbb343b82	-0.002750129
240	0x3d5445db	0.051824432
241	0x3cd4a2ab	0.025956472
242	0x3ceabe59	0.028655218
243	0x3d77d766	0.060508154
244	0x3c941403	0.018075949
245	0x3d4b51ba	0.049638487
246	0x3cc30430	0.023805708
247	0xbbe4ac49	-0.006978546
248	0x3d5f85ad	0.054570843
249	0xbcb1ffa1	-0.021728339
250	0x3bcd8da7	0.00627299
251	0xba6e37d7	-0.00090873
252	0x3d3357ae	0.04378479
253	0xbc154494	-0.009110589
254	0xbb4117d5	-0.0029463668
255	0x3d05d0ac	0.032669708
